model.pth (torch, 4620 bytes, 1 tensors)

linear.weight f4 [1, 771]
00000000: e948 0b40 2f6e 9b41 5e73 9a41 2337 a7c1
00000010: 99d8 1c41 94ff a740 6d81 a341 2b52 bdc0
00000020: f390 9841 9dc8 29c1 d22c 91c1 083e b640
00000030: 5202 2cc1 d082 aa41 f860 e340 9480 7241
00000040: c175 7c41 042c d040 363a 41c1 e2d7 11bf
00000050: df40 3e41 3599 5b41 ceb1 5141 d7f0 0b40
00000060: cccc 4c40 5747 3741 f089 45c1 5e12 ecc0
00000070: 08be f2c0 031f ce40 9e02 4941 5d64 54c1
00000080: b97b 90c1 3874 9040 1e92 db3f b7a5 8341
00000090: a26f 68c0 3d5f 9741 b74a 2841 6c71 93c1
000000a0: a7b6 e1c0 18bb dec0 7814 92c0 f79e a041
000000b0: 9c6b 99c1 75a3 4dc1 6caf a4c1 7ead 20c1
000000c0: 1030 9ac1 463f 20c1 6871 67c1 af42 5d41
000000d0: a798 6e41 fc63 22c1 4ae0 72c1 82b5 4941
000000e0: 6910 6cc0 62ac 99c1 86d8 1340 6ed2 88c1
000000f0: f803 5fbe e121 db3f 90ed 753e 9e38 9041
00000100: 4a9a 8bc1 f81e 9241 62e5 10c1 06b6 6341
00000110: d033 82c1 2343 6ac0 f57c a0c0 baf3 6340
00000120: 995a 0941 1a91 3041 ee14 443e ed3c 91c0
00000130: b2ac 7fc1 ccbc 1d41 31d3 7941 d872 3e41
00000140: b464 8f41 e0e8 b440 1807 b340 82da d840
00000150: ac86 4a41 717e 1341 2b36 7e40 761c 4740
00000160: f065 77bf 1231 6f41 50aa 8841 d9c3 a3c1
00000170: 8317 6b41 f22f e740 d4e4 483f 2e3e 0dc1
00000180: 1608 17c1 52f2 6ec0 b1ff b0c0 3c24 8abf
00000190: 424a 70c1 76a0 d8bd 190b 0b41 ddf8 2ec1
000001a0: 3e37 94c0 e38e bfc0 9797 96c1 b80e 9440
000001b0: 5e8b 2c40 6cb6 81bf a672 cdc0 336a e140
000001c0: 79b1 17c1 62c8 5d40 fcfa 8b40 c868 59c0
000001d0: b126 1ec1 4078 d7c0 edb8 bf40 600b 29c1
000001e0: 8923 1a41 7355 2dc0 78e4 9241 878f 2841
000001f0: f37c 28c0 7af2 0741 e5ee 3240 15cd 2740
00000200: c4ac 08c1 ece1 9140 9d51 b1c0 85e6 5f41
00000210: f750 ab41 c230 7740 7099 d0bf 52b6 6a3f
00000220: 39fb 93c1 1385 1cc1 643e 79c0 302d b7c0
00000230: 0bfa 0e41 c588 b441 667e c1c0 cbbc 58c1
00000240: 717c 8240 229a 2341 dd23 85c0 841f 9241
00000250: d1fc 08c0 79c3 6640 3b1c b340 a812 9840
00000260: cf73 08c1 e5d3 8dc1 ff59 75c1 1eb0 91c1
00000270: d24d 8341 a9ae 7f41 e103 c5c0 57a4 b63e
00000280: 4045 a93f 29f6 9d41 4583 8f41 018f 0841
00000290: f346 b73f 0559 96c1 2aa0 92c1 6f17 0441
000002a0: 7fa9 23c1 a775 2a41 2290 b83f bbeb b2c1
000002b0: e43b 6c41 826a c840 1057 14c1 76c0 2240
000002c0: 62f2 9841 9254 3040 c94d dc40 9cbf 1f41
000002d0: c2ee 90c1 6fe0 7941 7882 a940 bdda 98c1
000002e0: 6651 3741 114f 8ac1 bdb5 5540 6629 13c1
000002f0: e349 7141 efa2 20c1 5056 5ac1 170f 6fc1
00000300: aa25 d8bf d3a8 a4bc b62f f240 2c1d 42c0
00000310: cd47 50c1 ee84 a5c1 d1e2 5ec0 ade0 1fc1
00000320: 5efc 82c0 e595 bd40 0f99 66c0 faf9 1c41
00000330: fdb2 82c0 5785 b541 2dfb 5741 09f2 98c1
00000340: 24e9 18c1 a56c ad40 cbbf 2fc1 3e23 1c41
00000350: 6422 2941 16da a1c0 cb09 1340 ae02 aec1
00000360: f138 2241 2b7c 9fc1 bf8d a2c0 2e36 0ec1
00000370: 8411 94c0 1632 07c1 1417 7941 e2c8 9b41
00000380: 8d4e 7fc1 1cc4 8441 7627 8941 1794 84c1
00000390: 3d4d 8b41 f540 89c1 e393 f2c0 e273 36c1
000003a0: 8ce3 953f 2e2f 31c1 d775 f4c0 dcc8 b940
000003b0: dbf7 25c1 dcbd 25c1 3307 44c0 ff47 aec1
000003c0: 288c 1ac1 6326 4a41 2549 37c0 1f51 8541
000003d0: 489b 3ec1 b3d2 48c1 7e5f ca40 2818 2ec1
000003e0: 0a27 81c1 958e c8c0 b9b9 55c1 2ffb 17c1
000003f0: aa26 63c1 4023 a140 e924 fd40 431e a2c1
2.176325 19.4288 19.306332 -20.901922 9.80288 5.2499485 20.438196 -5.9162803
19.070776 -10.611478 -18.146885 5.695072 -10.7505665 21.313873 7.105587 15.156391
15.7787485 6.505373 -12.076712 -0.56970036 11.890838 13.724904 13.105909 2.1865747
3.1999998 11.454917 -12.346176 -7.377242 -7.585697 6.4412856 12.563139 -13.274503
-18.060411 4.514187 1.7153966 16.455915 -3.6318135 18.921503 10.518241 -18.430382
-7.0535464 -6.9603386 -4.5649986 20.07762 -19.177544 -12.8524065 -20.585655 -10.0423565
-19.273468 -10.015448 -14.465187 13.82878 14.912269 -10.14941 -15.179758 12.606813
-3.6885016 -19.209171 2.3100905 -17.102749 -0.21778858 1.7119714 0.24016404 18.027645
-17.450336 18.265121 -9.056002 14.231939 -16.2753 -3.6603477 -5.0152535 3.561751
8.584619 11.035425 0.19148609 -4.538687 -15.979662 9.858593 15.61406 11.903038
17.924171 5.653427 5.594616 6.7766733 12.657879 9.2183695 3.9720562 3.111112
-0.9663992 14.94948 17.08316 -20.470629 14.69324 7.2246027 0.78474164 -8.827681
-9.439474 -3.73354 -5.5312123 -1.0792308 -15.018129 -0.105774805 8.690209 -10.935758
-4.6317434 -5.986192 -18.824018 4.6267967 2.6960063 -1.0133796 -6.420245 7.044214
-9.480828 3.4653554 4.3743877 -3.3970203 -9.884446 -6.733429 5.991324 -10.565277
9.633676 -2.7083404 18.361557 10.535041 -2.6326263 8.496698 2.795831 2.6218922
-8.542179 4.5588284 -5.5412126 13.993779 21.414534 3.862351 -1.6296825 0.9168445
-18.497667 -9.782489 -3.894433 -5.724266 8.936046 22.566782 -6.0466795 -13.546092
4.0776906 10.22513 -4.160628 18.265388 -2.1404307 3.6056807 5.597196 4.7522774
-8.528274 -17.728464 -15.334472 -18.210995 16.412998 15.980142 -6.1567235 0.35672256
1.3224258 19.745195 17.939096 8.534913 1.4318527 -18.793467 -18.328205 8.255721
-10.228881 10.653724 1.4418986 -22.365103 14.764622 6.2630014 -9.2712555 2.542997
19.118351 2.7551618 6.8844953 9.98428 -18.116581 15.617293 5.2971764 -19.106806
11.457373 -17.288607 3.3392174 -9.197607 15.080539 -10.039779 -13.646072 -14.941184
-1.6886494 -0.020100033 7.568324 -3.0330305 -13.0175295 -20.689907 -3.4825938 -9.9923525
-4.0933065 5.9245477 -3.603092 9.811029 -4.084349 22.690107 13.498822 -19.118181
-9.556919 5.4195123 -10.984324 9.758604 10.570896 -5.057872 2.2974727 -21.751308
10.138902 -19.935629 -5.079803 -8.888227 -4.627138 -8.449728 15.568134 19.473087
-15.956677 16.595757 17.144268 -16.57231 17.412714 -17.156717 -7.5805526 -11.403292
1.1710067 -11.0740185 -7.6393847 5.805769 -10.373012 -10.358852 -3.0629394 -21.785154
-9.659218 12.634372 -2.8638394 16.66461 -11.91291 -12.55144 6.3241568 -10.8808975
-16.144062 -6.267405 -13.357842 -9.498824 -14.196939 5.035553 7.9107556 -20.264776
